MLP.pt (torch, 157913 bytes, 24 tensors)

weight f4 [200, 6]
0.19185895 -0.07028926 -0.31115672 0.16825801 0.30980933 -0.13852261 0.2778322 0.17826203
0.2344309 -0.22427438 0.38549808 0.39536494 -0.34390616 -0.028396968 -0.15915944 0.30661696
-0.28528565 -0.2675595 -0.35037106 0.41007358 -0.2832784 -0.00451604 -0.15666403 -0.31404328
0.018686777 0.15686995 -0.1645377 -0.08699986 0.18453173 -0.13964252 -0.08599488 0.22705427
-0.22788519 -0.37035337 -0.36636978 -0.30148238 0.068628885 -0.3587226 -0.3285551 0.13332242
0.075847335 0.052989915 0.053709857 0.3763068 0.18115205 -0.03251488 0.14295211 -0.060991183
0.0144794015 0.14124626 -0.25670445 -0.41451824 0.079124704 -0.35082227 0.05046022 -0.11239316
-0.07434247 0.3744281 0.2964481 0.13576363 0.16910957 0.023488512 0.33048168 0.21802957
-0.28167623 0.07943847 0.10546289 0.22278935 0.3825321 0.054946184 0.33215725 0.12861148
-0.067066446 0.3083196 -0.1870501 0.30345088 -0.3033584 0.051389363 -0.17406799 -0.32745355
0.37840453 0.27557555 0.031729423 0.16639367 0.258324 -0.3216314 0.1293096 -0.3500509
0.08230714 -0.17086516 0.055333924 0.2775552 0.3587801 0.06410777 0.28996593 0.34770486
-0.027892843 0.37645963 0.40868163 -0.31950322 -0.37315887 -0.17199498 -0.23564982 0.20768888
-0.109884284 0.272998 -0.18397368 -0.23658298 -0.05190008 -0.2736058 -0.12954767 -0.15899833
0.014529279 -0.09353432 0.051839642 0.047462557 0.042270925 -0.32043082 0.12566398 -0.3858959
-0.3304878 -0.022102369 -0.27238214 0.374995 -0.36846617 0.40303376 0.20709623 -0.26343754
-0.37978008 0.03969527 0.12618273 0.36044997 -0.13698566 -0.32940924 -0.088645086 0.2600991
-0.061352573 0.056575246 -0.2543569 0.19738145 0.15312222 0.25806913 0.34520018 -0.18358481
-0.31288466 0.4016781 -0.28818172 0.10154592 0.37202603 -0.045174237 0.34136674 0.381726
0.2184525 0.1267614 0.2720158 -0.2564386 -0.39970794 0.14317308 -0.06678022 0.10759883
0.08970934 -0.0258395 0.13304915 -0.33149815 -0.26265994 -0.023911797 -0.20702602 0.11244488
-0.14122851 -0.21440314 -0.095169656 0.16825648 0.19657366 -0.2929722 0.02025598 0.054048326
-0.15434183 -0.34692773 -0.40102413 -0.07952531 -0.19429946 -0.3713592 0.38390842 -0.30612025
0.37770936 -0.22647354 -0.36096925 0.099792354 0.016668754 -0.38190526 0.08574135 -0.24823377
0.3318426 0.06918773 0.104379095 0.27596954 0.07629674 0.2380864 0.40668792 -0.08380949
0.24027087 0.1487154 0.344371 0.049965277 -0.039298203 -0.05676515 -0.2512536 -0.13708846
0.11861169 -0.35303456 -0.036334366 0.31469646 -0.082735546 0.37973544 0.3601224 -0.043593876
0.3166852 -0.20877919 0.22443402 0.30578974 -0.024898985 0.28886056 0.25751185 0.26536384
-0.27011636 -0.11561101 0.3321132 -0.19997424 0.0458346 0.36223385 0.0033188472 0.098549485
-0.25511968 0.0031652409 0.121892214 0.22289059 -0.03807745 -0.051730372 0.38859057 0.08436943
-0.22028632 0.13774398 0.32841194 0.004922726 0.21011043 -0.08779922 0.14637923 -0.25534803
0.0035744286 -0.21407932 -0.3327315 0.38687512 -0.34635788 -0.028904123 -0.24147247 -0.072814256
00000000: ac76 443e d1f3 8fbd ef4f 9fbe d44b 2c3e
00000010: 549f 9e3e dfd8 0dbe 0640 8e3e 528a 363e
00000020: a70e 703e 2fa8 65be 0160 c53e 466d ca3e
00000030: 7814 b0be c2a0 e8bc b1fa 22be e6fc 9c3e
00000040: f610 92be 8ffd 88be d663 b3be 2af5 d13e
00000050: de09 91be 4afb 93bb 896c 20be 48ca a0be
00000060: 0315 993c 84a2 203e 927c 28be fc2c b2bd
00000070: e3f5 3c3e 73fe 0ebe 151e b0bd ea80 683e
00000080: bc5a 69be f59e bdbe d294 bbbe e65b 9abe
00000090: 4d8d 8c3d 7daa b7be 6038 a8be ac85 083e
000000a0: d955 9b3d f40b 593d defe 5b3d 49ab c03e
000000b0: ec7f 393e 532e 05bd 0a62 123e e4d1 79bd
000000c0: 033b 6d3c dca2 103e c46e 83be bc3b d4be
000000d0: 220c a23d fa9e b3be 60af 4e3d 632e e6bd
000000e0: dd40 98bd 0ab5 bf3e 0cc8 973e 9f05 0b3e
000000f0: 0f2b 2d3e fb6a c03c e534 a93e 2543 5f3e
00000100: de37 90be a3b0 a23d edfc d73d e422 643e
00000110: 3fdb c33e 400f 613d 8410 aa3e bab2 033e
00000120: 225a 89bd 11dc 9d3e 108a 3fbe ea5d 9b3e
00000130: cb51 9bbe a77d 523d e13e 32be fea7 a7be
00000140: 3dbe c13e 3d18 8d3e b6f6 013d 1a63 2a3e
00000150: 0b43 843e dfac a4be bc69 043e df39 b3be
00000160: a590 a83d 47f7 2ebe d3a5 623d b71b 8e3e
00000170: 06b2 b73e ef4a 833d 6a76 943e 5f06 b23e
00000180: 887f e4bc 51bf c03e b83e d13e ed95 a3be
00000190: ae0e bfbe 741f 30be 304e 71be 65ac 543e
000001a0: 030b e1bd 65c6 8b3e 9963 3cbe cf42 72be
000001b0: 2e95 54bd 0f16 8cbe 25a8 04be 75d0 22be
000001c0: 370c 6e3c ec8e bfbd ce55 543d 1968 423d
000001d0: 4724 2d3d 820f a4be 0fae 003e 2694 c5be
000001e0: b235 a9be 0710 b5bc ac75 8bbe 58ff bf3e
000001f0: 99a7 bcbe 715a ce3e 0911 543e 49e1 86be
00000200: 8972 c2be 8297 223d 0c36 013e e68c b83e
00000210: f845 0cbe 54a8 a8be 8e8b b5bd b62b 853e
00000220: d64c 7bbd 72bb 673d 113b 82be 5d1e 4a3e
00000230: 12cc 1c3e a321 843e 14be b03e a8fd 3bbe
00000240: 6b32 a0be c0a8 cd3e 8e8c 93be 4ff7 cf3d
00000250: 327a be3e 9f08 39bd 9fc7 ae3e 9771 c33e
00000260: 03b2 5f3e becd 013e a845 8b3e ec4b 83be
00000270: 85a6 ccbe f79b 123e 11c4 88bd c65c dc3d
00000280: 88b9 b73d 5cad d3bc 093e 083e 20ba a9be
00000290: 5d7b 86be ace2 c3bc a1fe 53be 8049 e63d
000002a0: 359e 10be 7f8c 5bbe 4fe8 c2bd 6d4b 2c3e
000002b0: 9b4a 493e 7400 96be deef a53c c761 5d3d
000002c0: c90b 1ebe 83a0 b1be 0953 cdbe 2ade a2bd
000002d0: 70f6 46be cb22 bebe a58f c43e cbbb 9cbe
000002e0: 1f63 c13e aee8 67be f6d0 b8be ef5f cc3d
000002f0: e98c 883c 1689 c3be 2999 af3d fe30 7ebe
00000300: 46e7 a93e 4cb2 8d3d b5c4 d53d e14b 8d3e
00000310: 7741 9c3d eccc 733e 6639 d03e 4fa4 abbd
00000320: 9109 763e da48 183e 6551 b03e 64a8 4c3d
00000330: 27f7 20bd 9382 68bd 50a4 80be eb60 0cbe
00000340: b0ea f23d f2c0 b4be 58d3 14bd e51f a13e
00000350: 4171 a9bd af6c c23e f761 b83e 7e8f 32bd
00000360: 9024 a23e 36ca 55be 08d2 653e 7990 9c3e
00000370: f5f8 cbbc 88e5 933e 98d8 833e c5dd 873e
00000380: b14c 8abe 77c5 ecbd be0a aa3e 0cc6 4cbe
00000390: 10bd 3b3d b776 b93e 0481 593b 50d4 c93d
000003a0: 0c9f 82be ee6f 4f3b a0a2 f93d 6e3d 643e
000003b0: 1af7 1bbd 3ae3 53bd 58f5 c63e e1c9 ac3d
000003c0: bd92 61be c20c 0d3e 9c25 a83e d24e a13b
000003d0: 3027 573e 14d0 b3bd 70e4 153e fabc 82be
000003e0: f640 6a3b 9c37 5bbe c85b aabe 7f14 c63e
000003f0: d255 b1be 57c8 ecbc 8f44 77be a41f 95bd

bias f4 [200]
0.05159047 -0.26122046 -0.33481473 0.32150272 -0.3276383 0.20610179 0.17671865 0.32231838
0.3116526 0.325629 -0.074920595 -0.3364448 -0.08697405 -0.2239231 -0.068673015 0.04174771
-0.23901857 -0.3329525 0.37246954 -0.1509271 -0.11928094 -0.20275953 0.25837782 -0.3314605
0.32861972 0.3745397 0.26596627 -0.3644514 0.25711507 0.03376613 -0.18268946 0.16255432
-0.21507081 0.0042701126 0.31699312 0.020690234 -0.15950373 -0.18418762 -0.12745792 -0.13563325
0.18928544 0.30773228 -0.3611823 -0.36889374 0.25300142 -0.24101163 0.27164346 0.26421475
-0.13897204 -0.16052276 0.3064319 0.37690866 -0.38058048 -0.14886795 -0.29178485 -0.15717681
0.045459107 -0.07012446 0.030947566 0.16362193 -0.22471754 -0.30488756 0.12119663 -0.3352521
-0.29424918 -0.18507287 0.13521734 -0.3335781 0.2330871 -0.16425246 0.03449263 0.31443247
0.39857122 -0.27338594 0.015976058 -0.23012474 0.2965696 -0.08230581 -0.2780567 0.3159589
0.0068845823 -0.017607033 0.037114043 0.023137217 0.12245092 0.38433933 -0.29531002 0.08045506
0.037629146 -0.29863885 0.21081144 0.037364606 -0.25791934 -0.33937907 0.045438852 -0.21899158
0.042673074 0.093186826 -0.12817061 0.31049424 0.25717184 -0.24995814 -0.24592677 0.3231457
-0.23007378 0.112105 0.15328148 -0.028011592 -0.22293915 0.30949432 -0.27322572 -0.059863076
0.123649485 0.2449595 0.27408203 0.19177979 0.18233006 0.080713764 0.32651278 -0.24893463
0.057593394 -0.28882483 -0.30707484 0.018649818 -0.07184318 -0.20256102 0.18593799 0.25333017
0.13712329 0.33659676 -0.27664664 -0.27112472 -0.03254162 0.16586971 -0.27206284 0.28786957
-0.3187969 0.30514914 0.07848599 0.19089364 0.29276314 0.36919373 -0.1858442 0.095342286
0.33689022 0.15107699 -0.32217833 -0.043452077 0.12668908 -0.39334968 0.19403684 0.14332506
-0.33324254 -0.17467669 0.29384857 -0.28918844 0.30337965 0.2848254 0.16477096 0.0698237
-0.16848531 0.34590492 -0.24269712 -0.14527924 -0.19121557 0.39712712 0.007258674 -0.10435896
-0.2916659 0.3127787 -0.070987135 -0.24201208 0.32122803 0.2255841 0.2176382 0.23924707
-0.014036002 -0.24775712 -0.10115177 0.022027789 0.39440438 -0.28722483 -0.3397927 0.006585487
-0.13144556 -0.38853505 -0.32371238 0.03879595 -0.29365447 -0.033309344 0.30189666 -0.052723873
-0.104500145 0.3448153 0.17239216 0.20276718 -0.21262117 -0.39339042 0.1614962 -0.3799042
00000000: 8750 533d b0be 85be d66c abbe 019c a43e
00000010: 35c0 a7be 590c 533e bcf5 343e ea06 a53e
00000020: ee90 9f3e d8b8 a63e f86f 99bd 7e42 acbe
00000030: 731f b2bd 194c 65be 70a4 8cbd a6ff 2a3d
00000040: 49c1 74be c078 aabe 54b4 be3e a28c 1abe
00000050: 9149 f4bd 32a0 4fbe 194a 843e 31b5 a9be
00000060: d840 a83e abc3 bf3e bb2c 883e 6099 babe
00000070: 96a4 833e 5b4e 0a3d f212 3bbe a474 263e
00000080: 863b 5cbe 4dec 8b3b ec4c a23e 917e a93c
00000090: f254 23be ae9b 3cbe 5484 02be 71e3 0abe
000000a0: 0bd4 413e 168f 9d3e e3ec b8be a4df bcbe
000000b0: 6789 813e c1cb 76be da14 8b3e 2847 873e
000000c0: b04e 0ebe 1460 24be a4e4 9c3e 2cfa c03e
000000d0: 72db c2be d770 18be d364 95be f5f2 20be
000000e0: 5433 3a3d 6a9d 8fbd c085 fd3c 828c 273e
000000f0: 5b1c 66be 391a 9cbe f035 f83d 2aa6 abbe
00000100: d4a7 96be be83 3dbe 6a76 0a3e c0ca aabe
00000110: 62ae 6e3e cc31 28be 2548 0d3d 4bfd a03e
00000120: 8711 cc3e 3ef9 8bbe 39e0 823c d2a5 6bbe
00000130: f8d7 973e f38f a8bd 735d 8ebe 5dc5 a13e
00000140: 1098 e13b a03c 90bc e504 183d 438a bd3c
00000150: 8cc7 fa3d 20c8 c43e e032 97be 9fc5 a43d
00000160: 0521 1a3d 31e7 98be f4de 573e a10b 193d
00000170: 010e 84be 18c3 adbe 171e 3a3d 543f 60be
00000180: f6c9 2e3d bcd8 be3d 283f 03be 1af9 9e3e
00000190: 07ac 833e 07f5 7fbe 3ad4 7bbe 5a73 a53e
000001a0: 7698 6bbe 4e97 e53d d2f5 1c3e 9178 e5bc
000001b0: 294a 64be 0a76 9e3e 3ee4 8bbe fc32 75bd
000001c0: f13b fd3d aad6 7a3e 7b54 8c3e ec61 443e
000001d0: bbb4 3a3e 424d a53d af2c a73e b8e8 7ebe
000001e0: 0de7 6b3d d9e0 93be ea38 9dbe 81c7 983c
000001f0: 8422 93bd 286c 4fbe 8766 3e3e 7eb4 813e
00000200: 0c6a 0c3e 6956 ac3e a1a4 8dbe dcd0 8abe
00000210: 5d4a 05bd c0d9 293e d24b 8bbe a463 933e
00000220: 5939 a3be 823c 9c3e 43bd a03d 9f79 433e
00000230: 0de5 953e f606 bd3e f14d 3ebe d142 c33d
00000240: e07c ac3e edb3 1a3e 8ff4 a4be cefa 31bd
00000250: c8ba 013e 2165 c9be 98b1 463e cec3 123e
00000260: c49e aabe 72de 32be 5273 963e 8210 94be
00000270: 9454 9b3e a3d4 913e b8b9 283e baff 8e3d
00000280: 6a87 2cbe 731a b13e 9885 78be 15c4 14be
00000290: 04ce 43be 3f54 cb3e 2cda ed3b 27ba d5bd
000002a0: 3c55 95be 8824 a03e b461 91bd 04d2 77be
000002b0: 0078 a43e 85ff 663e 8cdc 5e3e 2ffd 743e
000002c0: 42f7 65bc 0bb4 7dbe a928 cfbd 9f73 b43c
000002d0: 5fef c93e 220f 93be 4ff9 adbe 12cb d73b
000002e0: aa99 06be 11ee c6be a1bd a5be 81e8 1e3d
000002f0: e159 96be 616f 08bd 3392 9a3e fdf4 57bd
00000300: 2c04 d6bd a28b b03e 9287 303e 33a2 4f3e
00000310: 5db9 59be 786a c9be 435f 253e ce82 c2be

weight f4 [128, 200]
0.0010262073 -0.06753778 -0.0118711265 0.022297602 0.012662448 -0.057383083 7.3312825e-05 0.035255436
0.0007291522 0.012559372 0.057045706 -0.033999052 -0.060835328 -0.003870156 -0.0017104002 -0.00013946487
-0.04940505 -0.021706153 0.0056816614 0.020172302 0.056287643 -0.037158478 -0.025642263 0.04576107
-0.013384687 -0.026542762 0.044170264 0.049976848 0.05174488 0.06828821 0.071978346 0.05411918
-0.03172746 0.005121601 -0.055498943 -0.05790611 -0.060602777 -0.045568526 0.059166215 0.03962338
0.00804612 -0.040605646 -0.013430817 -0.034134153 0.055322453 -0.027307183 -0.049040362 0.0061661974
0.0110234665 0.01218964 0.03474808 -0.03165973 0.0058550527 0.07097967 0.05338978 0.058814526
0.063921995 0.07457892 -0.0019613998 0.049546394 -0.05242042 0.047116976 0.074317 -0.045704734
0.0019099315 0.020704057 0.04313272 0.03324455 0.045415856 0.044864036 -0.005039305 -0.019275662
-0.049478676 0.06293657 -0.034755822 0.062078234 -0.006925376 0.020264614 0.016052082 -0.07248067
-0.006311354 -0.036574453 -0.030323954 -0.061131366 -0.045120995 -0.042351205 0.010973964 -0.039585583
0.064851165 0.012603511 -0.05208129 -0.035885066 -0.06289154 0.02183182 -0.045001954 -0.013842957
-0.0073979264 -0.04859277 -0.03589936 -0.0196075 0.018761255 -0.061146345 0.04309262 0.029297978
-0.025745671 0.03536638 0.03951258 -0.07288997 0.039095182 0.015467572 -0.020519428 0.059564777
-0.06620077 -0.0030521527 -0.060744297 -0.05867006 -0.010842185 0.07225405 -0.009654331 -0.0026644173
-0.039285857 0.06457017 -0.0066356435 0.0504079 -0.056186575 -0.012591417 -0.0676349 -0.026132599
0.059233826 -0.016928414 0.05564137 0.037146166 0.051780842 -0.056005616 0.017849112 0.01688454
0.060959842 -0.033765398 0.041547317 -0.027995659 -0.048688497 -0.013735716 0.04983495 0.0319322
0.015689524 0.065045014 -0.0040239305 -0.032999586 0.057243433 0.034534376 0.07199174 0.05804431
0.044179857 -0.022531152 -0.029728364 0.009310081 -0.03526087 0.04585876 -0.054960173 0.02272145
-0.04242398 -0.035652984 -0.006635001 0.013161092 -0.05407136 -0.0676308 -0.024909228 0.025655268
-0.042160485 0.012208441 0.04272553 -0.003532078 0.04650271 -0.002983157 -0.0488264 -0.032179024
-0.030168885 0.055041213 0.0068012653 -0.0064539867 -0.053023916 -0.0029963239 0.004353524 -0.024186026
-0.036552306 -0.04886725 0.04703168 -0.041359626 -0.0101041 0.015110205 -0.03854764 0.014320474
0.06361855 -0.06840161 -0.057393942 0.04763671 0.044761427 -0.037807927 -0.044193774 -0.054541532
0.06375071 0.027478788 0.028118124 0.016542071 0.041543573 0.023323895 -0.009439908 0.019703483
-0.024182634 0.004128282 0.0589491 -0.036845222 -0.059902225 -0.021752495 -0.07427782 -0.06969942
0.027744094 0.050575294 0.027686877 -0.03605098 -0.033569615 -0.04830506 0.015128861 0.0067168116
0.05532529 -0.06686754 -0.0484807 0.04437439 0.021152237 -0.040475003 -0.06047395 0.043113947
0.017820861 -0.038562108 0.027748378 -0.052905764 0.031298723 -0.055773795 -0.06864377 -0.04491355
0.016863246 0.0050705574 0.032872304 -0.007773167 0.025798624 -0.0027375622 -0.016337087 -0.018940989
-0.07158044 0.06262494 0.0012172551 -0.038855005 -0.058107674 -0.040775273 -0.030713081 -0.031549014
00000000: ce81 863a 3f51 8abd 1d7f 42bc 76a9 b63c
00000010: 2876 4f3c 860a 6bbd 86bf 9938 0168 103d
00000020: 9324 3f3a d3c5 4d3c c2a8 693d 9742 0bbd
00000030: 772e 79bd 71a2 7dbb 822f e0ba 513d 12b9
00000040: f35c 4abd 1ad1 b1bc 3b2d ba3b 6240 a53c
00000050: df8d 663d 7d33 18bd b90f d2bc f66f 3b3d
00000060: 724b 5bbc 3570 d9bc e1eb 343d 86b4 4c3d
00000070: 70f2 533d b0da 8b3d 6269 933d 13ac 5d3d
00000080: a7f4 01bd 1ad3 a73b dc52 63bd f52e 6dbd
00000090: 9e3a 78bd 10a6 3abd 4658 723d 204c 223d
000000a0: e0d3 033c 1b52 26bd ee0c 5cbc 41d0 0bbd
000000b0: cc99 623d 50b3 dfbc 8cde 48bd d00d ca3b
000000c0: c59b 343c 0eb7 473c 0154 0e3d a2ad 01bd
000000d0: bedb bf3b ca5d 913d 3eaf 5a3d 80e7 703d
000000e0: 89e9 823d d5bc 983d d48a 00bb 29f1 4a3d
000000f0: cbb6 56bd bbfd 403d 8333 983d e334 3bbd
00000100: ab56 fa3a 8e9b a93c efab 303d 702b 083d
00000110: fa05 3a3d 5ac3 373d c120 a5bb fee7 9dbc
00000120: 27aa 4abd e3e4 803d 1f5c 0ebd bf45 7e3d
00000130: 44ee e2bb fa01 a63c a87f 833c bf70 94bd
00000140: 7acf cebb 18cf 15bd f169 f8bc e264 7abd
00000150: cbd0 38bd 7578 2dbd 24cc 333c 7e24 22bd
00000160: b0d0 843d f57e 4e3c 3153 55bd 38fc 12bd
00000170: 48cd 80bd a5d8 b23c f853 38bd 92cd 62bc
00000180: 4e6a f2bb 3609 47bd 350b 13bd e89f a0bc
00000190: 34b1 993c 9774 7abd e381 303d 5002 f03c
000001a0: 96e8 d2bc 56dc 103d f1d7 213d 5647 95bd
000001b0: 4522 203d b36b 7d3c 5c18 a8bc 32fa 733d
000001c0: 4594 87bd a006 48bb 03cf 78bd 0450 70bd
000001d0: 6ba3 31bc eef9 933d 332d 1ebc 819d 2ebb
000001e0: 35ea 20bd 5e3d 843d d06f d9bb 8478 4e3d
000001f0: e523 66bd 3b4c 4ebc 2b84 8abd 0814 d6bc
00000200: 2b9f 723d 75ad 8abc 35e8 633d 9426 183d
00000210: 2618 543d 2566 65bd 4d38 923c 7251 8a3c
00000220: 07b1 793d 964d 0abd 852d 2a3d 2757 e5bc
00000230: 976d 47bd c50b 61bc bc1f 4c3d 57cb 023d
00000240: 5187 803c 5236 853d 2ddb 83bb 932a 07bd
00000250: 1778 6a3d eb73 0d3d 6870 933d dfbf 6d3d
00000260: f0f5 343d 4093 b8bc e688 f3bc 4f89 183c
00000270: b46d 10bd 65d6 3b3d eb1d 61bd 5622 ba3c
00000280: c4c4 2dbd dd08 12bd 6c6a d9bb 9fa1 573c
00000290: ee79 5dbd 0482 8abd 700e ccbc ff2a d23c
000002a0: 79b0 2cbd ea05 483c f700 2f3d 6f7a 67bb
000002b0: a079 3e3d 1281 43bb 31fe 47bd 27ce 03bd
000002c0: bd24 f7bc e572 613d 26dd de3b f77b d3bb
000002d0: 9b2f 59bd f95d 44bb 02a8 8e3b c621 c6bc
000002e0: dfb7 15bd 0729 48bd 4aa4 403d b668 29bd
000002f0: ab8b 25bc cb90 773c 21e4 1dbd 6ca0 6a3c
00000300: 714a 823d 2516 8cbd e915 6bbd b61e 433d
00000310: c257 373d 7cdc 1abd 8804 35bd f166 5fbd
00000320: bb8f 823d 321b e13c fb57 e63c 3d83 873c
00000330: 9829 2a3d c111 bf3c d8a9 1abc 3369 a13c
00000340: a91a c6bc 8a46 873b 9d74 713d 04eb 16bd
00000350: 095c 75bd 4a32 b2bc f81e 98bd 92be 8ebd
00000360: 9547 e33c 0a28 4f3d 97cf e23c 31aa 13bd
00000370: 4b80 09bd 87db 45bd 0bdf 773c b318 dc3b
00000380: c59c 623d d9f1 88bd b393 46bd ecc1 353d
00000390: 7547 ad3c 1ec9 25bd 88b3 77bd 4098 303d
000003a0: 0efd 913c 4df3 1dbd 9150 e33c b7b3 58bd
000003b0: 1733 003d 1073 64bd 1b95 8cbd 45f7 37bd
000003c0: ca24 8a3c eb26 a63b 1ca5 063d 0db6 febb
000003d0: a357 d33c ac68 33bb 5bd5 85bc 222a 9bbc
000003e0: c498 92bd 8141 803d 4e8c 9f3a 6d26 1fbd
000003f0: 5002 6ebd f903 27bd 009a fbbc 8a39 01bd

bias f4 [128]
-0.0008268333 0.04531872 0.055346124 -0.060037892 -0.013821215 0.016672889 -0.06491376 -0.050816122
0.026522119 0.031514164 0.04126117 -0.036768183 -0.006819859 -0.06815768 -0.067897975 -0.04908343
0.022358792 -0.024803134 0.02702717 -0.00865131 0.030774662 -0.04338642 0.028780233 0.017575968
-0.0037754527 -0.027011879 0.0038087305 -0.048152983 0.030587178 -0.0008810871 -0.037778966 -0.014269631
-0.019603036 -0.06224711 -0.056640938 0.0063726027 0.070412196 -0.0020870406 -0.039821744 -0.0628647
-0.049601432 0.06945119 -0.033509612 -0.022301203 0.0026600799 -0.04852711 -0.0028809141 -0.049429603
0.010567191 0.04614321 0.038877856 0.00948547 -0.008308238 -0.010201594 0.0143669145 0.0034542233
0.052014843 -0.0075248824 -0.0012222134 0.014778096 -0.0108793685 -0.0020002981 -0.0204669 0.05768522
-0.035814732 0.06378134 0.02781889 -0.056935526 0.0070876 0.025946608 -0.036247358 0.012083268
-0.034843966 -0.02887795 0.028295534 0.021777442 0.013362172 0.021376263 0.049657047 -0.0019096426
0.017921431 -0.032763407 0.024997484 -0.057477046 0.06701206 -0.009951443 0.052839033 -0.017648647
-0.021285713 -0.06704816 -0.02998594 -0.06946223 0.035531756 -0.01185364 0.010487904 -0.037665036
-0.028231518 0.06621198 0.041470714 0.046640076 0.03384746 -0.03237679 -0.04005773 -0.047486443
-0.03891644 0.04434163 -0.027586544 -0.024024135 -0.041832533 -0.004857889 0.024850333 -0.01654035
-0.00752049 -0.05106603 0.04267538 0.028442966 -0.03283522 -0.017697282 0.041234463 0.0581653
-0.03852923 0.065984316 -0.029211054 0.05626762 0.010299209 -0.043175638 0.044307657 0.044667907
00000000: d8bf 58ba 1fa0 393d 9eb2 623d 4bea 75bd
00000010: 6172 62bc 9595 883c 81f1 84bd 9124 50bd
00000020: ea44 d93c ff14 013d 7901 293d 3c9a 16bd
00000030: 2079 dfbb 4196 8bbd 180e 8bbd b50b 49bd
00000040: c929 b73c f12f cbbc 1568 dd3c 39be 0dbc
00000050: 251b fc3c f5b5 31bd 86c4 eb3c 7afb 8f3c
00000060: 966d 77bb 0448 ddbc e59b 793b 103c 45bd
00000070: f691 fa3c c1f8 66ba 1ebe 1abd 2ccb 69bc
00000080: 8c96 a0bc d3f6 7ebd 5400 68bd 44d1 d03b
00000090: 4534 903d bbc6 08bb 201c 23bd 35bf 80bd
000000a0: df2a 4bbd 6d3c 8e3d 6041 09bd 03b1 b6bc
000000b0: bc54 2e3b 5dc4 46bd b8cd 3cbb b276 4abd
000000c0: 0322 2d3c aa00 3d3d 633e 1f3d f268 1b3c
000000d0: 471f 08bc 9624 27bc 3563 6b3c 4060 623b
000000e0: 840d 553d 4a93 f6bb ad32 a0ba d41f 723c
000000f0: 613f 32bc 6f17 03bb 33aa a7bc 5647 6c3d
00000100: 78b2 12bd cb9f 823d 71e4 e33c 3a35 69bd
00000110: 193f e83b fb8d d43c 1c78 14bd e6f8 453c
00000120: 8cb8 0ebd 7391 ecbc 09cc e73c 9b66 b23c
00000130: 03ed 5a3c 461d af3c 3065 4b3d f94c faba
00000140: f7cf 923c ec32 06bd 86c7 cc3c 0d6d 6bbd
00000150: 9e3d 893d 610b 23bc be6d 583d e593 90bc
00000160: 605f aebc 8c50 89bd 13a5 f5bc 3742 8ebd
00000170: bf89 113d c535 42bc 75d5 2b3c a746 1abd
00000180: c945 e7bc 269a 873d 32dd 293d aa09 3f3d
00000190: a2a3 0a3d 869d 04bd 9313 24bd 2581 42bd
000001a0: d866 1fbd 929f 353d 2dfd e1bc 43ce c4bc
000001b0: 9758 2bbd ed2e 9fbb ed92 cb3c a17f 87bc
000001c0: 716e f6bb 9d2a 51bd 61cc 2e3d 3901 e93c
000001d0: 397e 06bd e4f9 90bc 78e5 283d bd3e 6e3d
000001e0: d3d0 1dbd c922 873d 054c efbc e078 663d
000001f0: 03be 283c f0d8 30bd f27b 353d b2f5 363d

weight f4 [64, 128]
0.07737987 -0.057711624 -0.02612808 0.07108809 -0.07449208 0.0039838944 0.03425425 0.056987192
-0.0028900148 0.019815497 -0.07281467 0.037122857 0.01061681 -0.017827874 0.08183988 0.07253279
0.036527786 -0.085308224 0.025618559 -0.02167535 0.07805443 0.051348373 -0.008157437 0.025652641
-0.013098173 0.07929398 -0.058778465 -0.082083635 -0.0508677 -0.030233216 0.020165736 0.050871883
-0.0012389394 0.06360028 -0.01978142 -0.0049222223 0.012323243 0.013964833 -0.031261325 0.0042135688
0.08221059 -0.014473102 0.06542132 -0.020424176 0.06514719 -0.04594873 0.07743102 -0.08820047
0.032015137 0.06513497 -0.07736662 0.026562557 -0.07188995 0.08054109 -0.07840614 -0.074717425
-0.061546057 -0.04878739 0.062182363 0.055379122 0.054009885 -0.05009525 0.04530927 0.05286485
0.027862553 0.010779834 -0.020544434 0.075993985 0.009076155 0.03471067 0.060921885 -0.06616273
-0.07472871 -0.026570141 0.02167654 -0.027009483 0.05033457 -0.0061880844 0.07803878 -0.017804446
-0.0017802285 0.033059802 -0.061879214 -0.0818567 -0.053461716 -0.048004754 0.08743944 0.03259802
0.0012131588 -0.06080395 -0.04021013 -0.040108655 0.015858276 0.08166211 -0.011975651 -0.059602067
0.020268628 -0.00027023518 0.054890666 -0.01562496 0.023637032 0.035645574 0.080939956 0.064287506
-0.019401057 0.041954756 0.045530982 0.00089078327 0.069013655 -0.03554378 0.056953058 0.012398846
-0.08150048 0.046672057 0.018630546 0.041197743 0.0071155103 -0.012104619 -0.016377028 -0.076065205
-0.08903121 0.020096743 -0.008767331 -0.020648984 0.019945642 -0.042775054 -0.06082235 0.030865986
0.03945616 -0.07008404 -0.084667616 0.020361068 -0.0015212183 0.013568474 0.029981622 0.08435763
-0.06718037 0.013467126 0.0332237 -0.006133385 -0.08800627 -0.0067429356 0.023214113 -0.07372567
0.07724136 0.020197323 0.019517282 -0.03190637 -0.082898974 0.012358202 -0.05052939 -0.038617853
0.058085423 0.00274946 0.072438 0.028405065 -0.017686564 0.020893192 -0.029971696 -0.04799866
0.03622416 0.05825233 -0.02411611 -0.082126714 -0.002097417 0.05054799 0.0030287695 0.057553906
-0.03648307 -0.07713196 -0.036660787 0.061184242 -0.07212827 -0.03067857 -0.0846319 0.05847466
-0.040654678 -0.0072687543 0.07144016 0.06494434 -0.07744071 0.079743765 0.0022516758 -0.022682162
-0.0009393254 0.057659514 0.025416674 -0.036250066 -0.032146774 0.05368572 0.0118355695 0.071145274
-0.055560287 -0.064386286 0.06995695 0.071973264 0.03594904 0.032614436 -0.080211185 -0.040594462
-0.073617466 -0.0020947508 0.06267663 0.059290025 -0.02170642 0.0110980235 -0.08899547 0.0244055
0.08660488 -0.01301048 0.07773773 -0.030618886 -0.019385178 0.04054445 -0.049735095 -0.020839041
0.018348474 0.07884214 -0.06739678 -0.019694041 0.042030606 -0.073947445 -0.013952098 0.010092372
-0.0015433946 0.066378936 0.06653535 -0.05728583 0.06367721 -0.02664377 0.08277841 -0.015678171
-0.044650953 -0.082917325 -0.04495088 0.0767293 -0.050031066 0.07828052 -0.07343573 -0.06313232
-0.035946622 0.04213255 0.003833287 -0.0686492 -0.019799147 0.02422799 0.073227204 -0.07796026
-0.06379462 -0.03724153 0.007816718 -0.034596134 -0.008613338 -0.020672012 0.003756556 -0.04534636
00000000: 5679 9e3d 0663 6cbd 8e0a d6bc a296 913d
00000010: 4e8f 98bd 548b 823b 2f4e 0c3d 676b 693d
00000020: 6766 3dbb 1c54 a23c dc1f 95bd 230e 183d
00000030: 21f2 2d3c c30b 92bc ab9b a73d 128c 943d
00000040: 299e 153d 14b6 aebd 03de d13c 8190 b1bc
00000050: 00db 9f3d ac52 523d c5a6 05bc 7d25 d23c
00000060: b899 56bc e264 a23d b0c1 70bd 771b a8bd
00000070: a65a 50bd a6ab f7bc 9d32 a53c 095f 503d
00000080: e863 a2ba dd40 823d a50c a2bc 984a a1bb
00000090: 6de7 493c c1cc 643c e00b 00bd fa11 8a3b
000000a0: 075e a83d 9720 6dbc 9dfb 853d 9a50 a7bc
000000b0: e46b 853d bc34 3cbd 2894 9e3d 73a2 b4bd
000000c0: 4e22 033d 7c65 853d 6472 9ebd b899 d93c
000000d0: 0a3b 93bd baf2 a43d 6693 a0bd 7305 99bd
000000e0: b817 7cbd 49d5 47bd efb2 7e3d 38d5 623d
000000f0: 7839 5d3d ad30 4dbd 3796 393d d088 583d
00000100: 0240 e43c e79d 303c cd4c a8bc bca2 9b3d
00000110: 27b4 143c c72c 0e3d 3a89 793d 5380 87bd
00000120: 5e0b 99bd a0a9 d9bc 0093 b13c fe42 ddbc
00000130: 9f2b 4e3d 6ac5 cabb ccd2 9f3d a1da 91bc
00000140: 8e56 e9ba b769 073d 0f75 7dbd 7ca4 a7bd
00000150: acfa 5abd a2a0 44bd 7313 b33d 8085 053d
00000160: db02 9f3a 900d 79bd 61b3 24bd f948 24bd
00000170: 37e9 813c 773e a73d 8535 44bc 4c21 74bd
00000180: 650a a63c 5aae 8db9 09d5 603d d5ff 7fbc
00000190: 73a2 c13c 1801 123d d9c3 a53d 2ba9 833d
000001a0: f7ee 9ebc c0d8 2b3d b27e 3a3d 7483 693a
000001b0: 0857 8d3d 5b96 11bd 9c47 693d 8824 4b3c
000001c0: b9e9 a6bd 332b 3f3d 169f 983c f7be 283d
000001d0: 3a29 e93b 7452 46bc 1e29 86bc 13c8 9bbd
000001e0: ff55 b6bd eda1 a43c daa4 0fbc 0f28 a9bc
000001f0: 0b65 a33c e534 2fbd db20 79bd aada fc3c
00000200: c89c 213d 3988 8fbd 3766 adbd 41cc a63c
00000210: 9e63 c7ba 4e4e 5e3c 059c f53c b1c3 ac3d
00000220: dd95 89bd 38a5 5c3c 9315 083d 90fa c8bb
00000230: a23c b4bd d8f3 dcbb 862b be3c 7cfd 96bd
00000240: b830 9e3d db74 a53c b5e2 9f3c 41b0 02bd
00000250: f0c6 a9bd 0e7a 4a3c e8f7 4ebd c12d 1ebd
00000260: fbea 6d3d 4930 343b 605a 943d bdb1 e83c
00000270: 6ae3 90bc 3328 ab3c 3487 f5bc 3e9a 44bd
00000280: c95f 143d ff99 6e3d 268f c5bc 0d32 a8bd
00000290: d174 09bb 690b 4f3d 527e 463b a5bd 6b3d
000002a0: 466f 15bd 5cf7 9dbd 9f29 16bd 549c 7a3d
000002b0: fdb7 93bd a051 fbbc 7d53 adbd 2083 6f3d
000002c0: 8585 26bd bb2e eebb 384f 923d 8a01 853d
000002d0: 3c99 9ebd b350 a33d da90 133b f1cf b9bc
000002e0: 0f3d 76ba 622c 6c3d a136 d03c f37a 14bd
000002f0: 56ac 03bd 8fe5 5b3d fae9 413c 9db4 913d
00000300: 2f93 63bd f5dc 83bd 9745 8f3d b866 933d
00000310: 4d3f 133d b796 053d c345 a4bd 6146 26bd
00000320: c1c4 96bd 1648 09bb 9b5c 803d 19da 723d
00000330: aad1 b1bc 7cd4 353c 4243 b6bd 0bee c73c
00000340: e65d b13d e929 55bc f634 9f3d 75d4 fabc
00000350: aacd 9ebc f011 263d 07b7 4bbd a3b6 aabc
00000360: 8a4f 963c fd77 a13d 5307 8abd 6655 a1bc
00000370: 4928 2c3d c271 97bd 5797 64bc 7a5a 253c
00000380: bb4b caba aef1 873d b043 883d 8ca4 6abd
00000390: 3269 823d 0944 dabc ba87 a93d 826f 80bc
000003a0: ebe3 36bd 8fd0 a9bd 6a1e 38bd 4024 9d3d
000003b0: 60ed 4cbd 8a51 a03d 7965 96bd 854b 81bd
000003c0: c43c 13bd 2e93 2c3d e237 7b3b f497 8cbd
000003d0: d231 a2bc c779 c63c 25f8 953d a1a9 9fbd
000003e0: c1a6 82bd 938a 18bd b111 003c adb4 0dbd
000003f0: f51e 0dbc 5a58 a9bc 8d30 763b 1bbd 39bd

bias f4 [64]
0.08682217 -0.022228712 -0.08369942 0.038608693 -0.022435721 -0.041833814 0.057362106 0.01851728
-0.08221927 0.07889911 -0.07254164 -0.057650354 -0.06731715 -0.024367476 -0.041787848 -0.047053766
-0.020557696 0.013019751 0.04751213 -0.020659024 0.0029899122 -0.015857056 -0.020081582 -0.06833284
-0.053050093 -0.035468798 0.07439052 0.006839622 -0.012230663 0.035346515 -0.025291193 -0.028643621
0.08627272 -0.08788037 0.05900575 -0.037613403 0.0039548385 -0.049224734 0.047657814 -0.08561286
-0.06824266 0.029387338 0.028291147 -0.0040141568 -0.004056685 0.012563526 0.005943866 -0.025110167
-0.067662396 0.03197364 -0.078104496 0.035201058 -0.0056024035 0.06608945 0.010814998 -0.04200475
-0.012487073 -0.0688724 0.027775533 0.05463845 -0.055923115 0.0021361604 0.012876005 0.049294136
00000000: d2cf b13d fd18 b6bc 9a6a abbd 2624 1e3d
00000010: 1ecb b7bc ef59 2bbd 87f4 6a3d 8db1 973c
00000020: 9462 a8bd db95 a13d b690 94bd c722 6cbd
00000030: 93dd 89bd 4d9e c7bc bc29 2bbd 73bb 40bd
00000040: 9d68 a8bc cb50 553c 149c 423d 1d3d a9bc
00000050: 67f2 433b a8e6 81bc 2182 a4bc 17f2 8bbd
00000060: 0e4b 59bd bb47 11bd 0f5a 983d e81e e03b
00000070: 1e63 48bc 82c7 103d 7a2f cfbc 07a6 eabc
00000080: c0af b03d a0fa b3bd 03b0 713d 8310 1abd
00000090: 9797 813b e09f 49bd d734 433d cc55 afbd
000000a0: cfc2 8bbd b7bd f03c d6c2 e73c 3089 83bb
000000b0: f1ed 84bb 3fd7 4d3c c3c4 c23b d6b3 cdbc
000000c0: 9592 8abd cbf6 023d 40f5 9fbd fc2e 103d
000000d0: 5e94 b7bb e859 873d 6431 313c 2c0d 2cbd
000000e0: 9596 4cbc f90c 8dbd 8489 e33c 91cc 5f3d
000000f0: a30f 65bd d3fe 0b3b e1f5 523c a6e8 493d

weight f4 [2, 64]
0.09183595 -0.032006092 -0.08804223 0.05623854 0.037927896 0.07911926 0.10951404 0.110295765
-0.10171548 -0.061047956 -0.060137883 0.08042826 -0.00025758232 0.07126084 -0.064927846 0.038961954
0.012822775 -0.108798735 0.07101529 -0.042693898 -0.046741936 0.07101923 -0.08361424 -0.116627656
0.007441257 -0.100726165 -0.09242276 0.07805231 -0.046330195 0.043069843 -0.012219021 0.08616314
0.039582994 0.04602171 -0.10830346 0.09467003 -0.075469054 -0.031362075 0.013561845 0.11871546
-0.0038412854 0.058974188 0.047804493 0.09292895 -0.01728475 -0.121555 -0.114051476 -0.11292177
-0.046978224 0.093337506 0.051694773 0.025078181 0.08062653 0.077799134 -0.12113388 0.061180353
0.052931003 0.036693163 0.04214793 -0.02956236 0.0878378 -0.040679578 -0.11104595 0.030325748
-0.040460728 0.04245723 -0.047562946 -0.074404016 0.021924982 -0.12055573 -0.104513474 -0.07194417
0.09977173 0.082356855 0.010654801 0.039251685 0.04628694 -0.023816725 0.10162512 0.08324879
-0.052808255 -0.064242244 -0.0035077177 0.03148758 0.037131578 -0.11879839 0.04144341 0.02365443
-0.040645562 -0.08577202 0.023835959 0.097629085 0.11628298 0.064150386 0.007921877 -0.003491141
-0.050812185 0.07087192 -0.070875615 -0.11877162 0.05490539 0.01759877 0.07040523 0.010458948
-0.021058857 -0.08140365 0.064240456 0.11157201 -0.011745562 0.123759754 -0.012651567 -0.11831077
0.11927945 0.057129357 -0.030368255 0.07502714 0.07440004 0.098854296 0.0944397 0.034611464
-0.042454075 -0.07892036 -0.04777032 -0.107362874 -0.12271034 0.053952537 0.11600733 0.043392163
00000000: 7d14 bc3d d218 03bd 7c4f b4bd 625a 663d
00000010: 485a 1b3d 4709 a23d e648 e03d bfe2 e13d
00000020: 3550 d0bd 6c0d 7abd 2453 76bd 92b7 a43d
00000030: 1d0c 87b9 34f1 913d e4f8 84bd 9296 1f3d
00000040: 9e16 523c dfd1 debd 7770 913d ccdf 2ebd
00000050: 7974 3fbd 8872 913d f13d abbd 7bda eebd
00000060: cad5 f33b 8549 cebd 2548 bdbd e4d9 9f3d
00000070: bbc4 3dbd 016a 303d 4a32 48bc 4d76 b03d
00000080: c721 223d 4381 3c3d 34ce ddbd 5ce2 c13d
00000090: 858f 9abd 8575 00bd 8032 5e3c 1721 f33d
000000a0: 13be 7bbb eb8e 713d a5ce 433d 8951 be3d
000000b0: bf98 8dbc d4f1 f8bd d293 e9bd 8743 e7bd
000000c0: 3d6c 40bd bc27 bf3d e6bd 533d c270 cd3c
000000d0: 861f a53d 2755 9f3d 0a15 f8bd 4098 7a3d
000000e0: 2ece 583d 924b 163d 4fa3 2c3d c32c f2bc
000000f0: 4ee4 b33d a19f 26bd 0f6c e3bd b46d f83c
00000100: 26ba 25bd a2e7 2d3d 5dd1 42bd 2261 98bd
00000110: 059c b33c ece5 f6bd 290b d6bd 7757 93bd
00000120: 1f55 cc3d b6aa a83d 7991 2e3c 60c6 203d
00000130: 6097 3d3d 4b1b c3bc d520 d03d 577e aa3d
00000140: 784d 58bd 7091 83bd bde1 65bb 1ff9 003d
00000150: 4817 183d 924c f3bd 91c0 293d efc6 c13c
00000160: f67b 26bd 3ea9 afbd a143 c33c c2f1 c73d
00000170: c525 ee3d 4761 833d c3ca 013c a0cb 64bb
00000180: 7020 50bd 4c25 913d 3c27 91bd 893e f3bd
00000190: 79e4 603d 4c2b 903c 9e30 903d 025c 2b3c
000001a0: a083 acbc f5b6 a6bd 8090 833d de7f e43d
000001b0: 7570 40bc c175 fd3d 8548 4fbc eb4c f2bd
000001c0: c948 f43d 7900 6a3d d9c6 f8bc d4a7 993d
000001d0: 0c5f 983d 1f74 ca3d 9a69 c13d c0c4 0d3d
000001e0: 53e4 2dbd ffa0 a1bd d0aa 43bd 11e1 dbbd
000001f0: 8f4f fbbd 56fd 5c3d 4095 ed3d fbbb 313d

bias f4 [2]
-0.05887105 -0.026805965
00000000: c522 71bd 2f98 dbbc

weight f4 [200]
0.9965334 1.0003804 1.0051943 1.0038242 0.99582845 0.9990535 0.999643 1.0030991
0.99863154 1.0029327 1.000561 0.9986624 1.0011123 0.9995992 0.9997154 0.9965876
0.9966585 0.9987138 1.000644 1.0028598 0.9963138 0.99143344 0.99780333 0.99815786
1.0002296 1.0028354 0.9958052 1.0012691 0.99838924 1.0020773 1.0040963 1.003385
1.0014002 1.0019962 0.9993081 0.99954796 1.0009428 0.99464196 0.99812794 1.0038337
1.0025034 0.99992466 1.0128118 1.0012385 0.99403685 0.9974119 1.0007865 0.99870217
0.99898976 1.0072773 0.9943434 1.0013882 0.99566275 1.0028107 0.996379 0.9997541
1.0024611 1.0040623 0.9984941 1.001566 1.0035232 1.0039477 1.0022271 0.99895114
1.0038787 0.99655646 0.9977666 1.0042017 1.0015438 1.0036088 0.9978624 1.0035822
1.0008603 1.0014265 1.0021925 0.9956644 0.99736875 1.000816 1.0001965 0.9966443
0.9950329 0.9992335 1.0021249 0.9985182 1.0061562 1.0072997 1.0021799 0.994204
0.9960645 0.9937313 1.000761 1.003384 0.99680835 1.0051031 0.9974258 0.9979447
1.0041445 1.0016928 1.0036324 0.99448466 1.0043521 1.0025318 1.0028734 0.99976444
1.0007956 0.99663717 0.9991141 0.9991936 1.0032399 0.9933888 1.0042533 1.0061255
1.0004613 1.0030898 0.99786925 0.99670964 0.9881409 0.99335843 1.000386 1.0034298
1.0062474 0.9958784 1.0008713 1.0016679 1.0035903 0.99385417 0.99825907 1.0012672
1.0081662 1.0015057 1.009963 1.0021402 0.9980068 0.99453586 0.99921465 0.9998971
0.99901736 0.99899226 1.0029929 0.9970596 1.003728 0.9991979 1.0012245 0.99572766
0.99698687 1.0012828 0.9971699 1.0024489 1.0042089 0.9972871 0.99826306 0.99793977
0.99943787 1.0006934 0.9971896 1.0020381 1.0016268 0.9943436 1.0053289 1.00239
0.99796456 0.99928355 0.99717253 0.99659115 1.0015618 1.0022901 0.99517304 0.99331975
1.0026163 0.9967037 0.99863064 1.0037796 0.99715453 1.0046948 1.0048053 0.99668103
1.0016886 1.0024182 1.0035179 1.0017596 0.99858814 0.9989338 0.99633914 1.000089
1.0050015 0.9995684 1.0049101 1.0027394 1.0029947 0.9966191 1.0027077 0.9994312
1.0000166 0.9964996 0.993549 0.99864143 1.0038819 0.9931243 1.0072404 0.9967245
00000000: d01c 7f3f 770c 803f 35aa 803f 507d 803f
00000010: 9dee 7e3f f8c1 7f3f 9be8 7f3f 8d65 803f
00000020: 51a6 7f3f 1960 803f 6212 803f 57a8 7f3f
00000030: 7324 803f bce5 7f3f 59ed 7f3f 5d20 7f3f
00000040: 0325 7f3f b5ab 7f3f 1a15 803f b65d 803f
00000050: 6c0e 7f3f 95ce 7d3f 0a70 7f3f 4687 7f3f
00000060: 8607 803f e95c 803f 17ed 7e3f 9629 803f
00000070: 7096 7f3f 1244 803f 3a86 803f eb6e 803f
00000080: e22d 803f 6941 803f a8d2 7f3f 60e2 7f3f
00000090: e51e 803f dba0 7e3f 5085 7f3f 9f7d 803f
000000a0: 0852 803f 10fb 7f3f d1a3 813f 9528 803f
000000b0: 3379 7e3f 6356 7f3f c619 803f f2aa 7f3f
000000c0: cbbd 7f3f 76ee 803f 4a8d 7e3f 7d2d 803f
000000d0: c1e3 7e3f 1a5c 803f b212 7f3f e2ef 7f3f
000000e0: a550 803f 1d85 803f 4f9d 7f3f 5133 803f
000000f0: 7373 803f 5c81 803f fa48 803f 43bb 7f3f
00000100: 197f 803f 531e 7f3f a26d 7f3f ae89 803f
00000110: 9632 803f 4176 803f e973 7f3f 6275 803f
00000120: 311c 803f be2e 803f d847 803f dde3 7e3f
00000130: 8f53 7f3f bd1a 803f 7006 803f 1524 7f3f
00000140: 7aba 7e3f c4cd 7f3f a145 803f e49e 7f3f
00000150: bac9 803f 32ef 803f 6e47 803f 2784 7e3f
00000160: 15fe 7e3f 2d65 7e3f f018 803f e36e 803f
00000170: d52e 7f3f 38a7 803f 4c57 7f3f 4e79 7f3f
00000180: cf87 803f 7837 803f 0777 803f 8c96 7e3f
00000190: 9c8e 803f f652 803f 285e 803f 90f0 7f3f
000001a0: 121a 803f 9d23 7f3f f1c5 7f3f 27cb 7f3f
000001b0: 2a6a 803f ba4e 7e3f 5f8b 803f b8c8 803f
000001c0: 1e0f 803f 3f65 803f 5c74 7f3f 5d28 7f3f
000001d0: cdf6 7c3f bd4c 7e3f a60c 803f 6370 803f
000001e0: b7cc 803f e3f1 7e3f 8d1c 803f a736 803f
000001f0: a675 803f 3a6d 7e3f e88d 7f3f 8629 803f
00000200: 970b 813f 5731 803f 7846 813f 2146 803f
00000210: 607d 7f3f e799 7e3f 88cc 7f3f 42f9 7f3f
00000220: 9abf 7f3f f5bd 7f3f 1262 803f 4c3f 7f3f
00000230: 297a 803f 6fcb 7f3f 2028 803f 02e8 7e3f
00000240: 883a 7f3f 092a 803f 8746 7f3f 3f50 803f
00000250: eb89 803f 354e 7f3f 2b8e 7f3f fb78 7f3f
00000260: 29db 7f3f b916 803f d147 7f3f c942 803f
00000270: 4f35 803f 4d8d 7e3f 9eae 803f 514e 803f
00000280: 9b7a 7f3f 0cd1 7f3f b346 7f3f 9920 7f3f
00000290: 2d33 803f 0b4b 803f a9c3 7e3f 344a 7e3f
000002a0: bb55 803f f927 7f3f 42a6 7f3f da7b 803f
000002b0: 8545 7f3f d799 803f 769d 803f 7d26 7f3f
000002c0: 5537 803f 3d4f 803f 4673 803f a939 803f
000002d0: 79a3 7f3f 20ba 7f3f 1510 7f3f eb02 803f
000002e0: e4a3 803f b7e3 7f3f e5a0 803f c459 803f
000002f0: 2162 803f 6e22 7f3f ba58 803f b9da 7f3f
00000300: 8b00 803f 991a 7f3f 3a59 7e3f f7a6 7f3f
00000310: 347f 803f 653d 7e3f 41ed 803f 5629 7f3f

bias f4 [200]
0.007438406 -0.004573911 0.0017805358 -5.205953e-05 0.002623543 0.0013110468 -0.0003445251 0.0029169724
-0.003970353 0.0026325115 -6.138644e-05 -0.0027424 0.0077494034 0.0013303307 -0.00146751 -0.00329517
-0.0044732234 -0.0021333413 0.0031860531 0.002858761 -0.0027711687 -0.00380333 -0.0049493127 -0.00015340692
0.0029303355 0.004054842 -0.0013046414 0.0012524265 -0.001343041 0.0018090097 -0.001325458 0.00076449994
-0.0018150709 0.00451731 -0.0014319872 -0.0027150991 0.00282752 -0.0037328096 -0.0012926084 0.005472411
0.0024882948 0.0018394333 0.0036091772 0.00036858185 -0.0047334153 -0.0031484694 0.005198904 -0.004262257
0.0044323807 0.006751792 -0.003102879 0.0022533704 -0.0028610907 0.0012316483 -0.0016615964 0.0071613826
0.0020349193 0.0041920813 0.0029669984 0.0013909079 0.005147927 0.0024125376 0.0027138086 0.0039069317
0.0028271626 -0.0018617748 -0.0042850967 3.0426476e-05 0.00091318035 0.0012981525 -0.0026049071 0.003690317
0.0015053338 0.0056728516 -0.0013128126 -0.0025132876 -0.0029894286 0.0019223043 0.0037518886 -0.0020935503
-0.0044923984 0.008674256 0.0021122268 -0.0056135464 0.004570504 0.006252704 0.0031806363 -0.0041372105
0.0032612004 -0.0016113035 0.0015003096 0.0031800058 -0.0010738156 0.0037867194 0.0009348018 -0.0027037102
0.001296672 0.0006325323 0.004578614 -0.0017612998 0.0049813953 0.0027720528 0.0012378333 -0.0023957628
-0.0005170261 -0.004799873 -0.0028532187 -0.0023613304 0.0036696293 -0.0033895138 0.005444105 0.0024767888
0.0014900675 0.00372072 0.0041119833 -0.0017383886 -0.006485983 -0.0045274035 0.0028172622 -0.0020354523
0.0050145932 -0.004438489 -0.00061714585 0.0007168249 0.002542643 -0.0031788256 -0.00352555 0.0020232778
0.0064022113 0.00066002004 -0.0005967742 0.0026924293 0.0005150799 -0.003489404 0.002291399 0.0003016096
0.0022850784 -0.001200891 -0.0032132019 -0.00045953123 0.0052365423 0.0002774946 0.0030865448 0.006021157
0.0043380787 0.0023305644 -0.0031628658 0.001963586 0.0026828146 0.0054044793 -0.0018076428 -0.00066270295
0.0023014261 -0.00010708315 -0.0026434641 0.0013211336 0.0038442463 -0.0066853035 0.0016647171 0.0023616233
-0.0034445564 -0.002013564 0.0005379291 0.0023820908 0.0020486203 0.003229016 -0.0008336384 -0.0073233857
0.0024489032 0.001661334 -0.00448062 -0.0018439316 -0.0012555035 0.0033623087 0.0032493914 -0.0026980995
0.0039010611 0.0042113983 0.0033826414 -0.005431006 -0.0008621038 0.0005489956 -0.0012298927 -0.0008019317
0.00247427 0.0033880563 0.004614568 0.0019844696 -0.0017644556 0.00027611654 0.0030460034 -0.0014993636
-0.001563101 -0.0048350375 -0.0037359076 0.0063645295 0.004686407 -0.00015971642 -0.0005056803 -0.003432995
00000000: dfbd f33b bfe0 95bb de60 e93a 7f5a 5ab8
00000010: bfef 2b3b 6ed7 ab3a 60a1 b4b9 ad2a 3f3b
00000020: bc19 82bb 3786 2c3b 98bc 80b8 d6b9 33bb
00000030: b5ee fd3b 7e5e ae3a 7759 c0ba c7f3 57bb
00000040: 1e94 92bb 87cf 0bbb 1acd 503b 0d5a 3b3b
00000050: 7f9c 35bb 4a41 79bb d82d a2bb dbdb 20b9
00000060: df0a 403b 7bde 843b 8000 abba 7628 a43a
00000070: fa08 b0ba 4b1c ed3a feba adba b968 483a
00000080: ace7 edba f105 943b 84b1 bbba ceef 31bb
00000090: ea4d 393b 27a2 74bb be6c a9ba e951 b33b
000000a0: a912 233b 2419 f13a f287 6c3b 383e c139
000000b0: c41a 9bbb 8d56 4ebb 915b aa3b 67aa 8bbb
000000c0: 813d 913b 233e dd3b ac59 4bbb 48ad 133b
000000d0: 2381 3bbb 426f a13a ecc9 d9ba 08aa ea3b
000000e0: 485c 053b ba5d 893b f971 423b 204f b63a
000000f0: f1af a83b aa1b 1e3b 27da 313b b805 803b
00000100: eb47 393b cc06 f4ba ff69 8cbb 5c3c ff37
00000110: 7f62 6f3a c526 aa3a 17b7 2abb 3fd9 713b
00000120: 9f4e c53a 54e3 b93b ae12 acba f8b5 24bb
00000130: 4aea 43bb d4f5 fb3a 3fe2 753b f233 09bb
00000140: f834 93bb 771e 0e3c 496d 0a3b d7f1 b7bb
00000150: 2bc4 953b 7ce3 cc3b 3972 503b 7091 87bb
00000160: ddb9 553b 6032 d3ba 09a6 c43a a567 503b
00000170: 46bf 8cba 9c2a 783b 7d0d 753a bb30 31bb
00000180: 18f5 a93a 86d0 253a 3308 963b 6adb e6ba
00000190: f93a a33b 54ab 353b cb3e a23a 3b02 1dbb
000001a0: 0989 07ba 4148 9dbb 11fd 3abb 8dc0 1abb
000001b0: 2a7e 703b 9b22 5ebb 7664 b23b 9f51 223b
000001c0: 5e4e c33a 53d7 733b d1bd 863b a4da e3ba
000001d0: 5e88 d4bb 9d5a 94bb d1a1 383b 3965 05bb
000001e0: 7551 a43b bf70 91bb f5c7 21ba 4ee9 3b3a
000001f0: 79a2 263b d853 50bb ea0c 67bb f898 043b
00000200: a4c9 d13b 3205 2d3a d770 1cba 7873 303b
00000210: 6d06 073a 7cae 64bb 4c2b 163b 5b21 9e39
00000220: 41c1 153b 3767 9dba 9594 52bb 3ded f0b9
00000230: 4d97 ab3b b27c 9139 a147 4a3b 204d c53b
00000240: 7126 8e3b 62bc 183b 1548 4fbb 82af 003b
00000250: 29d2 2f3b 0f18 b13b 6dee ecba 3eb9 2dba
00000260: 86d3 163b d491 e0b8 f83d 2dbb e329 ad3a
00000270: c0ef 7b3b 6410 dbbb a332 da3a 77c5 1a3b
00000280: 11be 61bb 00f6 03bb d003 0d3a da1c 1c3b
00000290: 2542 063b e69d 533b 8788 5aba 03f9 efbb
000002a0: c77d 203b 1ec1 d93a 2ad2 92bb 14b0 f1ba
000002b0: b58f a4ba 2e5a 5c3b bef3 543b 99d2 30bb
000002c0: f2a8 7f3b c5ff 893b 4eaf 5d3b 95f6 b1bb
000002d0: cffe 61ba 79ea 0f3a 5a34 a1ba ba38 52ba
000002e0: 5d27 223b 270a 5e3b cd35 973b e00d 023b
000002f0: 4e45 e7ba bcc3 9039 759f 473b 4b86 c4ba
00000300: f7e0 ccba 3c6f 9ebb 21d6 74bb 8b8d d03b
00000310: 6e90 993b 8d79 27b9 a18f 04ba 19fc 60bb

running_mean f4 [200]
46.55206 316.01923 -207.36261 -192.95834 -9.3076935 -280.7135 -76.15884 156.50726
-192.73476 167.69362 136.7085 298.24197 18.651512 80.00735 -75.047134 338.0566
-35.887283 -85.95566 -166.17517 -107.759796 -63.716988 40.369633 -74.04003 106.9951
36.399426 270.48016 -57.64748 -127.65358 -97.89491 -219.10085 -89.04763 -211.09123
281.33508 287.75812 -176.6551 209.47733 237.29416 73.63122 59.258656 180.3433
75.8801 -49.63434 -141.14586 -321.73788 92.36219 -32.059017 -49.984444 -152.64717
199.69589 75.81645 -49.507893 -311.85962 -32.52311 168.42722 210.91998 185.30469
-148.37375 -428.1811 -7.6872334 148.88007 -266.5679 -165.73857 62.020363 -304.05365
-57.332474 -242.13382 221.93797 55.50864 -198.29195 -31.942646 149.21097 -132.88756
-71.27241 -37.265007 103.362366 -60.691517 -70.76857 -33.567318 12.723595 68.18064
341.4578 34.296993 102.91119 -33.04465 -199.18204 90.828445 -65.89445 -59.735065
29.65885 92.29887 -85.19581 9.18079 -143.57079 157.62544 21.196032 192.33807
107.05463 253.26096 -339.7417 116.796425 -323.6899 -103.69759 169.88533 143.09325
27.305025 76.531235 -73.29417 24.700123 114.64499 4.0644054 16.40765 96.05527
0.15546691 -213.71373 -21.748264 53.422913 37.484108 -32.700047 -31.4875 -116.28603
-150.08186 12.128686 -235.2131 42.942287 -106.60015 63.794003 16.520935 265.26282
-131.29128 94.16107 -152.95634 -137.86708 -2.9381719 -13.451723 -112.81645 325.96564
172.30217 -198.98775 -56.26637 -86.225815 -26.555992 259.6271 190.82275 -102.9442
78.29908 93.38301 18.920538 -67.69803 -166.28273 6.3777294 130.01826 100.386375
-120.50648 -62.795258 -37.88789 20.796879 44.344536 56.31566 -149.34074 -202.81248
181.33257 143.65198 -18.644289 -90.4632 -5.518199 221.92177 -40.70111 233.9022
-92.206635 -5.514428 -109.62419 39.657997 199.74765 -148.83455 -201.93364 -82.78165
-72.29529 -241.961 -96.519394 235.83621 -61.658802 95.878 148.85075 63.054375
-182.84454 41.699604 -155.56297 88.29283 -224.17499 46.440796 -284.34027 -12.266424
-48.288063 -38.912724 230.24965 191.18915 138.93616 37.72979 -46.187588 58.86421
00000000: 4f35 3a42 7602 9e43 d45c 4fc3 56f5 40c3
00000010: 50ec 14c1 545b 8cc3 5351 98c2 dc81 1c43
00000020: 19bc 40c3 91b1 2743 60b5 0843 f91e 9543
00000030: 4c36 9541 c303 a042 2218 96c2 3f07 a943
00000040: 948c 0fc2 4ce9 abc2 d82c 26c3 0485 d7c2
00000050: 32de 7ec2 817a 2142 7f14 94c2 7efd d542
00000060: 0399 1142 763d 8743 0597 66c2 a24e ffc2
00000070: 32ca c3c2 d119 5bc3 6318 b2c2 5b17 53c3
00000080: e4aa 8c43 0ae1 8f43 b5a7 30c3 327a 5143
00000090: 4e4b 6d43 2f43 9342 dd08 6d42 e357 3443
000000a0: 9cc2 9742 9089 46c2 5725 0dc3 73de a0c3
000000b0: 71b9 b842 6f3c 00c2 12f0 47c2 ada5 18c3
000000c0: 26b2 4743 06a2 9742 1508 46c2 08ee 9bc3
000000d0: aa17 02c2 5e6d 2843 84eb 5243 004e 3943
000000e0: ae5f 14c3 2e17 d6c3 d1fd f5c0 4ce1 1443
000000f0: b148 85c3 13bd 25c3 da14 7842 de06 98c3
00000100: 7454 65c2 4222 72c3 1ff0 5d43 d908 5e42
00000110: bd4a 46c3 8a8a ffc1 0236 1543 37e3 04c3
00000120: 798b 8ec2 5e0f 15c2 88b9 ce42 1dc4 72c2
00000130: 8289 8dc2 ef44 06c2 d893 4b41 7d5c 8842
00000140: 99ba aa43 1f30 0942 87d2 cd42 b92d 04c2
00000150: 9a2e 47c3 2aa8 b542 f5c9 83c2 b5f0 6ec2
00000160: 5345 ed41 0599 b842 4164 aac2 84e4 1241
00000170: 1f92 0fc3 1da0 1d43 7991 a941 8c56 4043
00000180: f81b d642 ce42 7d43 f0de a9c3 c597 e942
00000190: 4fd8 a1c3 2b65 cfc2 a5e2 2943 df17 0f43
000001a0: b170 da41 fe0f 9942 9d96 92c2 da99 c541
000001b0: 3c4a e542 9c0f 8240 de42 8341 4c1c c042
000001c0: b832 1f3e b7b6 55c3 72fc adc1 10b1 5542
000001d0: baef 1542 d9cc 02c2 66e6 fbc1 7392 e8c2
000001e0: f514 16c3 190f 4241 8e36 6bc3 e7c4 2b42
000001f0: 4733 d5c2 0f2d 7f42 e02a 8441 a4a1 8443
00000200: 914a 03c3 7852 bc42 d3f4 18c3 f9dd 09c3
00000210: 020b 3cc0 423a 57c1 06a2 e1c2 9afb a243
00000220: 5b4d 2c43 ddfc 46c3 c310 61c2 9e73 acc2
00000230: ac72 d4c1 45d0 8143 a0d2 3e43 6ee3 cdc2
00000240: 2199 9c42 1ac4 ba42 435d 9741 6465 87c2
00000250: 6148 26c3 5c16 cc40 ad04 0243 d3c5 c842
00000260: 5103 f1c2 582e 7bc2 338d 17c2 0260 a641
00000270: ce60 3142 3c43 6142 3b57 15c3 ffcf 4ac3
00000280: 2355 3543 e8a6 0f43 8127 95c1 29ed b4c2
00000290: 1695 b0c0 f9eb 5d43 f0cd 22c2 f7e6 6943
000002a0: cc69 b8c2 3276 b0c0 963f dbc2 caa1 1e42
000002b0: 66bf 4743 a5d5 14c3 03ef 49c3 3490 a5c2
000002c0: 3097 90c2 04f6 71c3 ee09 c1c2 12d6 6b43
000002d0: 9da2 76c2 89c1 bf42 cbd9 1443 ae37 7c42
000002e0: 34d8 36c3 65cc 2642 1f90 1bc3 ee95 b042
000002f0: cc2c 60c3 60c3 3942 8e2b 8ec3 4643 44c1
00000300: fa26 41c2 a1a6 1bc2 e93f 6643 6c30 3f43
00000310: a8ef 0a43 4eeb 1642 17c0 38c2 f374 6b42
